HW1_PEFT/adapter.pt (torch, 434118 bytes, 48 tensors)

encoder.block.0.layer.1.adapter.sharif_llm_adapter.0.weight f4 [8, 512]
00000000: 172e c8bd 0d19 e03d 1a67 463b ec77 0bbd
00000010: 5bd6 1e3d 246d cfbb 27b9 103e a992 58be
00000020: b01b bc3d 1410 b1bd 0be6 17bd 9bcd dc3d
00000030: 60c4 053e e838 8ebd 7175 803d f0ab 74bc
00000040: 81f4 573d de61 d23d b347 363e 22d5 6a3d
00000050: 3ff9 f5bc 7778 f8bd 7279 ebbd 99f2 773d
00000060: 264d a83c c5b6 14bd 113c c5bd 6cd7 68bd
00000070: dfb8 4b3d d397 0a3d 9d92 be3c ad1e e6bd
00000080: 74b9 babd ebac dc3d 990f bbbd 2ab4 fd3d
00000090: c313 9c3d c5ed c23d 3e48 253d ac4f fbbd
000000a0: 40c3 3ebc 18e3 413d 1da1 b93b 52c0 2a3c
000000b0: 169a f4bd 5b0b a23c 9a0d f83c e51f 16be
000000c0: 29ab e2bc 602a 153e e1cd 083d b1ce 3f3d
000000d0: d3c6 dbbd 85e0 413d 781c 463d 9555 36be
000000e0: 8d41 043e fffc fabc 9f3e 2dbd 2c98 cb3d
000000f0: 2edb cc3d e930 0dbe 8536 edbc 553d a03d
00000100: afe6 52be fdde afbd 6b04 213e fbd4 0bbd
00000110: cf56 223e 6832 2ebd d9a8 1fbd 7e1b 8b3c
00000120: 71a5 043e 0ca8 d8bd bc8f 4a3d 61ab 05bc
00000130: 5ccd d73b 8374 95bc 132b 0abd 12fe a3bc
00000140: b36c 283c 34ff 193e e569 f03c 6dec 11be
00000150: 5d09 033e 02e6 bcbd 4624 e1bc c61f 7e3c
00000160: 6f41 0abd fc82 653d 323a 5ebd dd18 11be
00000170: c5d4 c23d 7fe4 fdbc ed77 98bd c355 3cbd
00000180: ea5e bf3d 8da5 213e e90f 0fbd f983 2cbe
00000190: b65a 27bd bce4 b739 5985 a93d 95f4 ab3d
000001a0: c6aa 833d ff2e 2cbc c25f d73d a1bd a63b
000001b0: 3c65 173e 712f 24bd c095 123e f72d 223e
000001c0: cb44 d43c a9f9 9bbd 695c f9bd 042b 5dbd
000001d0: b85f cabd 71d9 fa3d f3ee b7bd 972c 14bd
000001e0: 1147 aebc 4bc5 793d fa30 753d d8b7 bb3d
000001f0: a245 073e 34db 443e d232 54be b996 a53d
00000200: 9953 d63b e7f9 2abe be03 1739 2b12 763d
00000210: b1fd 0a3c cc87 ffbd 90a5 e7bc 26c4 ba3d
00000220: fb64 253e cf14 b33d 8f54 1abe 1bba babd
00000230: 163c 13be 5de5 09bd 7862 e33d 286d d0bc
00000240: f9c4 d33b 8c36 d5bd 8232 b4bd 8aeb d4bd
00000250: 882d 9c3d 2eed bb3d 55f9 023d 765d 97bd
00000260: 493d 28be bfa5 953d b268 6bbd 3126 4fbd
00000270: 879e 72bd de1d ad3d 3469 e8bc 9bfa 5ebd
00000280: 16e4 5f3d a4b1 cb3d 08aa c4bc e430 34bd
00000290: 9743 353e e189 413d db45 893c 4274 363d
000002a0: 02d8 d8bd 882a 8e3c ffbb 6bba 5a03 f5bd
000002b0: 5ecc ce3d 858c 853d 5186 9dbd 0454 66bb
000002c0: eea3 5e3e 4590 563d 72e2 b53d 3609 643d
000002d0: ac17 423e 0311 90bd cf81 7b3d 683e 5e3b
000002e0: 8434 cebc 907a 82bd 3edb fb3d 7183 23bd
000002f0: d621 303e fde4 103d b224 0bbd af38 a33c
00000300: 62b7 dbbc 76f7 b8bd 0c03 a5bc 938a d9bd
00000310: 45af 803c 8208 2fbe 36df 47bc f1d6 2fbd
00000320: c98c 333d 0956 87bd b20e 20bd 39d9 ffbc
00000330: e016 0dbd 47ba 883d 57fd 6cbd 2a91 90bc
00000340: d5bc b83c d5e7 cb3c a22a 7b3d 8a1b 0bbc
00000350: 1e26 08be 1209 74be 92cf 18be 8ab4 69bd
00000360: 500f 3b3d a73b cebb 2b47 b73d 6973 983d
00000370: 11b1 f03d fc40 973d 98e9 d5bd cd63 c63d
00000380: ecdc a1bd e9bb 6fbd ec37 e63c 4760 2fbd
00000390: e977 ea3c f284 4fbd bb5d 973d 711f 213d
000003a0: c384 1b3e c63d 7b3b feff f8bd d070 a8bb
000003b0: 339f 21bd bb18 433e 87d8 c43d 2e0d f6bb
000003c0: 5a2c edbc 4ac0 52bc ad1b ffbd c481 b0bd
000003d0: a49b c4bd e54b b43c 5f23 9b3d 63c4 693c
000003e0: 9bf6 e0ba 4888 fdbc b138 083e de16 2a3e
000003f0: 0cd0 46bb fe5a c5bd c656 2cbc 3093 15bd
-0.09774416 0.10942278 0.0030273856 -0.034049913 0.038778644 -0.0063301492 0.1413313 -0.21149696
0.091849685 -0.08645645 -0.03708462 0.10781404 0.13063192 -0.06944448 0.062724 -0.014933571
0.05272341 0.10272573 0.17800789 0.057332166 -0.030026076 -0.12132352 -0.11497773 0.060534094
0.0205446 -0.036307115 -0.096305974 -0.056846067 0.049736854 0.033836197 0.02326327 -0.1123632
-0.091174036 0.10775169 -0.091338344 0.12387879 0.07620957 0.09518007 0.0403521 -0.122710556
-0.011643231 0.047335714 0.005664958 0.010421829 -0.11943452 0.019780805 0.030279923 -0.14660604
-0.027669506 0.14566946 0.033399466 0.046827976 -0.10731282 0.04733326 0.048366994 -0.17806084
0.1291563 -0.030638216 -0.04229605 0.09941134 0.10002743 -0.13788189 -0.028956661 0.07824198
-0.20595811 -0.085874535 0.15724342 -0.03413866 0.15853427 -0.04252854 -0.038979385 0.016980883
0.12953736 -0.105789274 0.049453482 -0.008158536 0.00658576 -0.018244034 -0.033732485 -0.020018611
0.010279822 0.15038759 0.02934737 -0.14250346 0.1279654 -0.09223558 -0.027483117 0.015510505
-0.03375381 0.05603312 -0.054254718 -0.14169641 0.09513239 -0.030992744 -0.07444749 -0.045980226
0.09344275 0.15785809 -0.034927282 -0.16847219 -0.040857993 0.000350749 0.08277387 0.0839626
0.06429057 -0.010509252 0.10516311 0.0050885235 0.14784712 -0.040084306 0.14314938 0.15837847
0.02591171 -0.07615978 -0.12175829 -0.0539961 -0.09881538 0.12248505 -0.08981123 -0.036175337
-0.021274121 0.06097917 0.05986116 0.09165925 0.13210157 0.19224244 -0.20722511 0.08085389
0.0065407273 -0.16696893 0.00014401876 0.06007592 0.008483336 -0.12477073 -0.028277189 0.091194436
0.16151802 0.08744203 -0.15071319 -0.09117528 -0.1437839 -0.033666003 0.11102766 -0.025442675
0.00646269 -0.104107946 -0.08798696 -0.10396488 0.07625872 0.09176098 0.031976063 -0.07390873
-0.16429628 0.07307004 -0.057472892 -0.05057353 -0.059233215 0.08452962 -0.028370477 -0.054438215
0.05466088 0.09945992 -0.024006858 -0.04399194 0.17701565 0.047250632 0.016756942 0.044544466
-0.10588075 0.017354265 -0.0008992552 -0.1196353 0.10097574 0.065209426 -0.076916344 -0.0035145292
0.21742222 0.05238368 0.08881082 0.055672847 0.18954343 -0.07034495 0.061403092 0.0033911709
-0.025171526 -0.06371033 0.122976765 -0.039920274 0.17200407 0.03537463 -0.033970542 0.01992449
-0.026820842 -0.090315744 -0.020143054 -0.10622134 0.015708575 -0.17093089 -0.012199214 -0.042929593
0.043835435 -0.06608207 -0.039076515 -0.03123151 -0.034445643 0.066761546 -0.05785879 -0.017647345
0.02255098 0.02489082 0.061319955 -0.008490453 -0.1329579 -0.23831585 -0.14922932 -0.05705694
0.0456689 -0.006293732 0.08949121 0.07443888 0.11752523 0.07385442 -0.10444945 0.09687004
-0.07903466 -0.058528814 0.028102838 -0.042816427 0.02862163 -0.050663896 0.073909245 0.039336625
0.15187363 0.003833638 -0.12158202 -0.0051404014 -0.039458465 0.19052403 0.09611612 -0.0075088954
-0.028951813 -0.012863228 -0.124564506 -0.08618501 -0.095999986 0.022008846 0.07575106 0.014268014
-0.0017163338 -0.030948773 0.13302876 0.16610286 -0.0030336408 -0.09636496 -0.010518735 -0.036517322

encoder.block.0.layer.1.adapter.sharif_llm_adapter.0.bias f4 [8]
00000000: 0f12 c1bd 0827 77bc 81bc e8bc 7d07 84bd
00000010: 7796 32bd ca22 9fbd e983 0abd 66ab 92bd
-0.094272725 -0.015084989 -0.028410198 -0.06446741 -0.043600526 -0.07770307 -0.033817206 -0.07161598

encoder.block.0.layer.1.adapter.sharif_llm_adapter.2.weight f4 [512, 8]
00000000: 5ecb a2bd 69c8 0d3d 4ceb 573e 7a22 483e
00000010: bd97 0bbe f8aa 3037 16ce 5abe 7d97 7fbe
00000020: aba2 3e3c e3c2 4b3e 3a90 30be 3f38 8d3e
00000030: 62ae ad3d 55e3 093d dfb3 c2be 372b 2e3d
00000040: 52f7 803e efe2 d13d 1d7b 4bba 999c 10be
00000050: efd9 d13d b89e 823d 3fab 2fbe 9e38 4e3e
00000060: ed32 973e 056c 443d 4fd0 9239 d3c3 30be
00000070: f291 6c3c 8c75 babd cec5 a93e e309 413e
00000080: e664 993d e785 6e3e bdd4 f1bc 85a2 a5be
00000090: 2769 92be a4d0 043e c565 833e a4aa 03be
000000a0: 434d 813d a389 0fbf 01ed c43d af7e 28be
000000b0: dd52 aabe 34d3 76be a581 c23d a97c 5f3e
000000c0: ef1e 3bbe 9ef5 9abe d582 59be d1f5 963e
000000d0: 6d08 bf3e 37ec babe 0e3d f53d 39db f33d
000000e0: af24 71be f61d 2cbe fd65 5ebe 0344 48be
000000f0: 4225 1bbe bd66 febd f927 bc3c 673a 4ebe
00000100: fa4a c03e d670 883e 9bc5 6e3d 974d 303e
00000110: 909b e0bb 9112 1dbd 3bfe f0bb 580d eabd
00000120: 9b16 a03e 414b 573d d35f 883e b21e 12be
00000130: 00ea 833e 14dc b13e 88e2 913e 9319 093f
00000140: a277 863e e914 dbbe cd5d b63d 90f1 9f3e
00000150: b8a6 6b3e e3d3 973d c685 693d deee cdbd
00000160: fc05 94bc abb2 a83c 0436 29be 12f0 f8bd
00000170: 6cb2 383e 19d6 0e3e 832c 0ebe e47b 3fbe
00000180: 4d46 d0be d307 5fbe f428 c5bc a5ca b6bd
00000190: 5fc0 10be 8d95 c3be 88d4 113e 4104 f53d
000001a0: 8ec9 b13e 8244 783e 9aef 63bb 3c01 8d3d
000001b0: e3f5 24bd 2528 dc3d 8b41 173f abe7 40be
000001c0: 209b fb3d 0333 3f3e 51e3 b73c bef9 943d
000001d0: ae80 abbe 01db 973d 63d5 bebd b82b 5b3e
000001e0: 3a08 263e b8e1 de3b 55f5 d8bc b915 abbe
000001f0: 5a32 753e cf7f cebc 2348 503e 6b2d 403e
00000200: 75a2 6f3e 8d78 c8bc ebb2 fc3d 9d99 b4bd
00000210: fa4c 1dbd a742 b5be ea19 a43e 4114 543d
00000220: 60d5 2dbc fbdd c93d 3e30 4c3e e151 81be
00000230: 6c98 a83e 437f 863d aba5 93bd db56 4dbd
00000240: 40aa b539 ea6f 1fbe 7e1b 92bd 0054 acbe
00000250: e73d 6fbe f3d8 56be f565 a23d 6200 16bd
00000260: 04b2 b33c d172 42be 7b77 80be edb4 26be
00000270: abfa a3bd b3db 58be 1ca8 7abe 72ed fc3c
00000280: aae8 60be ffb2 febc 1ef5 143e 5595 70be
00000290: a749 dcbe 47d8 c0be b99d 68bc 3375 a1be
000002a0: 6710 14bd 5537 e2bb 82e3 e0bd 233c 7abe
000002b0: c75b 5cbe 540e 75be b1e6 fe3d 1700 10be
000002c0: c70e c0be eabf 8abd 5ebb d83c 2d51 fd3c
000002d0: a2aa c73d bea7 b33c 7980 9a3e 8dd7 703e
000002e0: 3f9f 82be c6fe 443b e786 353e 77a7 9a3e
000002f0: c720 083e 018a 15be 48b8 4dbe 5c52 bc3d
00000300: f90d c93c b8aa 863e b777 733d 74c2 203e
00000310: 7013 703e ea9e 84be 64aa ca3e eb5c dfbd
00000320: 85cc c1bb d15d 373d b390 b2be 1b02 87ba
00000330: fc69 d23d 594e 49be def5 353e 7125 553e
00000340: 47f2 99be 537b 9abe 7c25 a43e 20ee 403d
00000350: 85a2 7fbe ffed 8bbc 1009 a43a 5cb3 d23d
00000360: e638 0cbe bed9 76bd 980a db3c 0157 1f3e
00000370: cfaf 95be 3384 ebbd b7f3 a73d 5dea 5b3e
00000380: e3ce ef3d 2ac4 323e bb1f 463e 538b b03e
00000390: 614a 683e 4ff7 913d bf5c 46be b51a 773d
000003a0: 2860 0e3d 591b 84be 79ed b4be abba a5be
000003b0: f6e6 48bd ff1a 0ebd 26b9 0cbe 1147 9fbe
000003c0: 50d1 013e 7ffb a3be 5caa 33be c7f1 fabd
000003d0: ad9f 8c3e 82a0 a03d 93b6 583e 19c6 37be
000003e0: 5ac0 91bd 34e2 983e 94bc d73d 317d a73e
000003f0: 0197 fc3d f361 443e b127 23be 2273 d5bd
-0.079489455 0.034614954 0.21085852 0.19544402 -0.13632102 1.0530224e-05 -0.21367678 -0.24960132
0.011635463 0.19898562 -0.17242518 0.27581975 0.084805265 0.033664066 -0.38027856 0.04252168
0.2518869 0.10248362 -0.0007762181 -0.14122237 0.10246646 0.063779294 -0.17155169 0.20138785
0.2953104 0.047954578 0.00028002492 -0.17262201 0.014439093 -0.091044515 0.33158726 0.18851428
0.07489948 0.23293267 -0.029520387 -0.32350555 -0.2859585 0.12970215 0.25663581 -0.12858063
0.06313565 -0.5606939 0.096155174 -0.16454576 -0.33266345 -0.24104005 0.09497384 0.21824898
-0.18273519 -0.30265516 -0.21241315 0.29484418 0.37311116 -0.36508343 0.11974536 0.11907048
-0.2354915 -0.16808304 -0.21718593 -0.19557194 -0.15150931 -0.124219395 0.02296828 -0.20139466
0.37557203 0.26648587 0.05829392 0.17217098 -0.006854482 -0.038347784 -0.0073545254 -0.11428326
0.31267247 0.052562002 0.26635608 -0.14269522 0.25764465 0.3473822 0.28493142 0.5355465
0.26263148 -0.4278939 0.0890461 0.31238985 0.23012817 0.07413461 0.057012342 -0.10055326
-0.01806926 0.020593008 -0.16524512 -0.12155165 0.18036813 0.1394886 -0.13884167 -0.18699604
-0.40678635 -0.21780328 -0.02406738 -0.0892537 -0.14135884 -0.38200036 0.1424123 0.11963702
0.34724087 0.24244884 -0.0034780265 0.06885001 -0.04027356 0.107498445 0.59084386 -0.18838374
0.12285447 0.18671803 0.02244726 0.07274197 -0.33496612 0.074148186 -0.09318044 0.21403396
0.16214076 0.00680181 -0.02648417 -0.3341501 0.23944989 -0.025207428 0.20340018 0.18767326
0.23401816 -0.024471546 0.123388134 -0.08818362 -0.03840349 -0.35402414 0.3205102 0.051777128
-0.010609955 0.098567925 0.19940278 -0.2525778 0.3292879 0.06567242 -0.07209333 -0.05013166
0.00034649856 -0.15570036 -0.0713415 -0.33657837 -0.23363458 -0.20981197 0.07929603 -0.03662146
0.02193547 -0.18989111 -0.25091156 -0.16279955 -0.080067955 -0.21177559 -0.24478191 0.030874941
-0.21963754 -0.031091211 0.1454663 -0.23494466 -0.43024942 -0.37665007 -0.01419776 -0.31534728
-0.036148455 -0.0069035687 -0.10980894 -0.24437003 -0.21519385 -0.23931247 0.12446345 -0.14062534
-0.37511274 -0.06774886 0.026456531 0.030922497 0.097493425 0.021930572 0.30176142 0.23519726
-0.2551212 0.0030059083 0.17727242 0.3020589 0.13293754 -0.14603426 -0.20089829 0.09195396
0.024542795 0.26302123 0.05944034 0.15699178 0.23444915 -0.25902492 0.39583123 -0.109063946
-0.005914273 0.044767205 -0.34876022 -0.001030031 0.10274121 -0.19658794 0.17769572 0.20815064
-0.30067655 -0.30172214 0.32059848 0.047102094 -0.2496434 -0.017081259 0.0012514908 0.10288116
-0.1369358 -0.06026625 0.02673845 0.15560533 -0.29235694 -0.114998244 0.08200782 0.21476121
0.117093824 0.17457643 0.19348042 0.34481296 0.22684623 0.071272485 -0.19371317 0.060328204
0.03475967 -0.25802115 -0.35337427 -0.3236898 -0.049048387 -0.034693714 -0.13742504 -0.31108907
0.12677503 -0.32027814 -0.17545456 -0.122531466 0.27465573 0.078431144 0.21163397 -0.17946662
-0.07116766 0.2986008 0.10534015 0.327127 0.12333489 0.1917799 -0.1593311 -0.104223505

encoder.block.0.layer.1.adapter.sharif_llm_adapter.2.bias f4 [512]
00000000: 7e01 fdbd 6282 a5be 1e00 b9bc fb53 edbe
00000010: 0b47 4ebe cb0d 26be c1ae a7bd 5025 7a3e
00000020: 8bae 963e 95a1 513e e1b7 60be 3b46 a43d
00000030: 3915 52bc c1c5 873c d959 0a3e e0c9 123e
00000040: 77a4 8cbe d5fd 96be 38c2 383e 9164 2a3e
00000050: 446f cdbe bf6c c9bd 416f 0d3e 88b5 01bd
00000060: 5148 843c c0b4 c2be 09e5 0bbe c128 853d
00000070: d052 473e f78d 1dbf b5cc f9bd 22f2 abbe
00000080: fbe5 ecbe 8d73 633e 39c9 0d3f 114a 1bbe
00000090: 5f95 b63d 4fa7 89be 91c4 993e 2f0b d43d
000000a0: 60ab d23d 2a89 e839 be55 5b3e a674 c2bc
000000b0: 23f0 cdbe 941c 33bd c58b acbc e1ae aabd
000000c0: e5d7 993e 3105 ebbd 676c 21be d72f 48bd
000000d0: 79a7 3d3e 4333 ba3e c406 373c bbf0 1ebd
000000e0: c735 99bc 07c2 883e 5fa3 693e ca44 1f3e
000000f0: 0c76 6a3e 85a1 153e 919b 963e 2480 913e
00000100: e27e 99bd 3998 1f3e 1c9a 303e 5b66 debe
00000110: 7549 3cbe b87a ec3c 0d7c d43b 1ee0 a53d
00000120: c3bc 66be 7a3a 70bd 260c a13c 2bd6 0dbe
00000130: 4deb 453e 405d 0a3e 278a c13c e21b 993e
00000140: 5fce fbbe 793a 633e 1651 8d3e cdf8 563d
00000150: 1d4a 673d c513 0dbe 286c 9dbe 6dfb 01be
00000160: 56e5 8c3e b175 c13e 3ac4 81be 2462 083e
00000170: eee9 e8bd fb22 773e 7a33 c4be 0dab acbc
00000180: d3fd 863e 98bf aa3d 23c1 453e 2057 ccbd
00000190: 4021 873e 01c3 ef3c e22f 193d 87d5 59be
000001a0: 543b 98bc e493 36bd c3a5 653d c2b2 113e
000001b0: 2880 c53e f328 f5bd 024b 513e 8394 403d
000001c0: 8550 bcbe 0644 903e 0e14 6d3e 4e25 4a3e
000001d0: c15c 82bd 4a34 c53d cf2d 023e 19b0 3d3d
000001e0: a0f8 ebbc c479 0dbb a7a9 8d3e ede0 523c
000001f0: 84b5 55be 2c6c 463e 40fd b73e 63e3 d6bb
00000200: 2e59 9dbd 8c2d 93be d195 2ebe 084c c7bd
00000210: 9685 863d ccc6 2f3d 7145 7ebe 95f4 c2bd
00000220: ddf3 853e 988f 943e 4c36 d6bd 5039 84bd
00000230: 5365 853e 445d 02bf 8fa6 5d3e 1928 933e
00000240: eac3 c0be e571 d8bc 61b8 07bd b5a6 023e
00000250: 661f 3f3e 7bda ac3d 27f5 8c3e 17e5 aabd
00000260: 10b1 823e adb0 a5be 37bf 9a3e c7a8 b73e
00000270: e8da 143e 43b7 61be 9afc cabd 919d 8d3e
00000280: 4f4f 2dbe 24aa ae3e 5d17 b63d 6c56 403e
00000290: f2b0 8a3e a5a6 d33e b32a c1bd 8329 773e
000002a0: 7194 883e 274f ce3c 57b7 00bf 43d3 c1bd
000002b0: 6be5 a43e 35e4 7d3e 650b 063d c35b 593e
000002c0: b623 ef3d 6aed d73e 9641 11be deae f43c
000002d0: 756e 2abd 83f7 80be b7a7 3f3e db46 73be
000002e0: e00e 04bf f6a6 0fbe bfb2 9fbd 41b1 94bd
000002f0: 82e9 cd3e 17cb 113e dc83 92bc 8816 063b
00000300: 4e34 13bd 08e9 523d 0b7b a03e 8409 af3c
00000310: bb92 c73e a0b4 b03d 9ff3 15be fc33 92be
00000320: f529 25be 73c3 803e 0836 d8bd a9a7 333c
00000330: 1ab7 56be 3ae5 123e d02e 4c3e b675 a23e
00000340: f162 d43d b4ee 3bbe f16c d23c 803c 2c3c
00000350: cc6e ddbd 06ac 013c 16c9 843e b855 be3d
00000360: db0a d8bd 4444 20be 65e5 903e 0451 843d
00000370: 63cb 12be e409 cebe c516 5ebe 91b2 b8bc
00000380: 6403 d2bd e3b6 b13d 3679 e7be 96d0 06bf
00000390: 3db7 b23e 3303 ae3e b574 30be 5e5b 1bbe
000003a0: ad6d ab3e c21b 83be d199 7e3e f310 e3bd
000003b0: 6cdb 613d 00bb b5bd 107f afbd c5b3 c63e
000003c0: bdf3 463e 3229 c7be 571c c2be 0202 fe3c
000003d0: bb29 e8bd b34a 81be f5d5 7a3d fd4e 19bd
000003e0: 305b 893e 8edf 1e3e c3cf 58be efa2 b43e
000003f0: 7806 00be 093d fa3d a8c7 35be 25df 2d3e
-0.123538 -0.32326037 -0.022583064 -0.46353135 -0.20144288 -0.16216199 -0.081876285 0.24428296
0.2943004 0.20471795 -0.21945144 0.08021208 -0.012822443 0.016573789 0.13510837 0.14334822
-0.27469227 -0.29490533 0.18042839 0.16639926 -0.4012395 -0.09835195 0.13811971 -0.031667262
0.016147764 -0.38028526 -0.13661589 0.06501914 0.19465184 -0.61544746 -0.12197248 -0.3358317
-0.4626921 0.22212048 0.55385166 -0.15164973 0.08915209 -0.2688546 0.3003278 0.103536956
0.102865934 0.00044352683 0.21419427 -0.023737263 -0.40222272 -0.043728426 -0.021062741 -0.08334137
0.30047527 -0.114755996 -0.15764008 -0.04887375 0.18520917 0.36367235 0.011171047 -0.038803797
-0.0187024 0.2671053 0.22816227 0.15553585 0.22896594 0.14612396 0.29415563 0.28418076
-0.07494904 0.15585412 0.17246288 -0.43437466 -0.18387397 0.02886711 0.0064845146 0.080993876
-0.22532944 -0.058649518 0.019659113 -0.1385123 0.19328041 0.13512135 0.023625446 0.29904085
-0.49180886 0.22190274 0.27600926 0.05248337 0.056467164 -0.13777073 -0.3074658 -0.12693568
0.2751872 0.37785104 -0.2534502 0.13318688 -0.113727435 0.24134438 -0.38320524 -0.021077657
0.26365528 0.08337325 0.19311957 -0.09977555 0.26392555 0.02926779 0.03739918 -0.2127286
-0.018582977 -0.044574633 0.056066286 0.14228347 0.38574338 -0.11970701 0.2043877 0.04701663
-0.36780182 0.28176898 0.23152182 0.19740793 -0.06365348 0.09629114 0.12712787 0.046310518
-0.028805077 -0.002158747 0.27668497 0.012871009 -0.20870024 0.19377202 0.35935402 -0.0065578683
-0.07683025 -0.28745687 -0.17049338 -0.09731299 0.06568448 0.042914197 -0.24831177 -0.095193066
0.26162615 0.29015803 -0.10459575 -0.06456244 0.26053867 -0.5092356 0.21645568 0.2874153
-0.3764947 -0.026421497 -0.03313482 0.12758906 0.18664321 0.08440109 0.27530786 -0.08344477
0.25525713 -0.32361355 0.3022401 0.35870954 0.14536631 -0.22042565 -0.09911461 0.27659276
-0.16924785 0.34114182 0.08891175 0.18782967 0.27088124 0.41338077 -0.09431972 0.24136929
0.26675752 0.025184227 -0.50279754 -0.09464123 0.32206282 0.24794085 0.03272571 0.2122641
0.11676733 0.4217332 -0.14185175 0.02986854 -0.041609246 -0.25188836 0.18716322 -0.23757498
-0.515852 -0.14028534 -0.07797765 -0.07260371 0.40217215 0.14237629 -0.017885141 0.0020460207
-0.035938554 0.051491767 0.31343874 0.021366842 0.38979134 0.086282015 -0.14643715 -0.28555286
-0.16129287 0.25149116 -0.10557181 0.010965266 -0.20968285 0.14345255 0.19939733 0.3173043
0.10370434 -0.18352777 0.025686713 0.010512471 -0.108121485 0.007914549 0.25934666 0.09293693
-0.105489455 -0.15651041 0.28300014 0.06460765 -0.14335398 -0.4024192 -0.21688373 -0.022546085
-0.10254553 0.08677461 -0.45209664 -0.52662027 0.34905425 0.33986816 -0.1723202 -0.15171573
0.33482113 -0.25607115 0.24863364 -0.11087217 0.055140898 -0.08873558 -0.08569157 0.38809028
0.19428916 -0.38898617 -0.37912247 0.031006817 -0.113360845 -0.25252303 0.0612392 -0.037428845
0.26827383 0.15514967 -0.21173005 0.35280558 -0.12502468 0.12218673 -0.17751944 0.16979654

encoder.block.1.layer.1.adapter.sharif_llm_adapter.0.weight f4 [8, 512]
00000000: dde7 f6bd 3c33 33be ecd2 ebbd 0a0a 9cbc
00000010: 9ab2 1ebc 225c 18bd 84c9 26bc 19a1 c73d
00000020: e6c6 d9bd 2f20 01be ef12 f73d e121 d63d
00000030: 1ebd c9bc f82f bfbb 533b 723d 9e0c 6dbd
00000040: a7d1 db3d 2d38 c9bc 232b d53d ecc4 d53c
00000050: 2435 a9bd ea39 fd3b f216 60bd 5d70 653d
00000060: 0879 1f3e 2b9e d9bd b7a2 f03d d3d2 003d
00000070: 1e31 16be 7cd4 1cbd 4e95 343c e911 0fbb
00000080: f3dd 763c 3403 92bd f20c 02bd 4da5 25bc
00000090: 8627 26be 1327 303b 765e 24be 6aad d83c
000000a0: 8bcd a13c 7a1c b2bc e246 e6bd 99f7 1cbd
000000b0: 7bd4 59bd bc47 15bd 5777 82bc 800c a9bd
000000c0: 42c3 d03d edbc 273c ee4e 9abd 577d a1bd
000000d0: ddbf b73d 689c e13d c5a7 1a3e 6639 e53c
000000e0: 95bb 373e d9fb 243e 16a2 653b 1bca e2bd
000000f0: 0b36 4fbd 221f 2f3d ce50 48bc a7c8 5e3d
00000100: acc9 2fbe db67 bbbd eef6 d23d a5df 1cbd
00000110: f308 753d 28b4 0fbe 583c ef3d 5e21 103e
00000120: efcc ec3c ca01 e53d a4e6 963c 935d a0bd
00000130: d240 bb3d a431 de3d 8e80 dfbc 0f37 583e
00000140: 0109 233e 0297 143d e9d0 d4bd f6ab 85bd
00000150: 6590 abbb 8881 b53c 9856 17be 382e bebd
00000160: e5f3 e6bd 8889 10be 54ca b2bc 0917 313d
00000170: f000 bcbd fd89 993c bf58 523e 28ef 5c3e
00000180: 5b0d bf3d ea25 0f3d a00b 443e ed4d 5fbd
00000190: 92e8 e4bc f80f 13be 88d0 0abe 83fc 16bd
000001a0: 73e0 15be 0845 cebd 7570 553e 21ec 1f3d
000001b0: 07c4 213e 6ea9 d13c c3df 5c3d acf6 ecbc
000001c0: 37c7 ed3d 7e6b 7cbd 7937 833c a557 133d
000001d0: ea6a 283b ffbd 9d3d 210d 553d a027 babd
000001e0: e3d9 89bc 4325 0e3d fc36 9b3d 4d85 913d
000001f0: be97 bebd 7496 423c 3f68 f53d ab03 9d3c
00000200: e26c 073d 6451 963c cdfd 3cbd e5d7 d43d
00000210: 8569 563d 0c9e 72bc 4c8e 343e 9a84 613d
00000220: 2e07 123e 39a7 803d eee3 f43c 6568 c63d
00000230: a3c4 ebbc d128 2dbd a5d9 8d3d 5942 e3bc
00000240: a58e c6bd bd79 d1bb 881b b23c a3f7 5b3b
00000250: 941a 353e 07cf 023e 58d3 b0bd 03a4 073d
00000260: 1e39 1e3b d4b2 44bd 430e 29bd 0bf4 5a3d
00000270: 2f4d ebbd a0e3 1bbd ae60 b0bd 39a8 96bd
00000280: f7b8 2cbe 808c ad3d 4e32 8dbd 8543 b6bc
00000290: 2735 5f3a 9d01 c8bc 09fa f4bc 8faa a5bc
000002a0: df14 583d 847f 673c 2a11 703d a411 f63c
000002b0: d3d0 6bbe abb7 9d3d 61ea 2fbe ffb6 bcbc
000002c0: 3b88 6abd 29a3 5abd 2f33 a43b 8488 51bd
000002d0: 0347 abbd bd23 c9bc 6a3b c13c 3adb 8fbd
000002e0: 7fc5 ffbc 799a 4f3d f691 ce3d 9b8d 08bd
000002f0: e037 0dbe 390c cb3d 165b 05be 8c24 e0ba
00000300: 10c7 7dbb 7f93 193e e18b b73d 8b08 dcbd
00000310: d7ef 0bbe 8c18 d8bd f0b6 bbb9 440f ac3b
00000320: 16c6 e9bd 0e1b 263d 84e8 e2bc 70ce 82bd
00000330: 652a 22be df5b ad3d 75b4 32bd 46bf bc3c
00000340: f01b 593d 83f9 e0bd 3805 84bc 74e4 5c3d
00000350: 167d e53c 76b1 e3bb 9f03 9c3b 668b 053d
00000360: e1fe 20bd 4dd2 e4bc 4541 f0bd 7b4c 84bd
00000370: 55b1 0f3e ca09 203d db43 243e f1e5 02bd
00000380: 43c9 c63c 4703 293b 4885 0abd 587f 693d
00000390: d889 053e 35af 66bd 40a7 8a3d 4fc4 8e3c
000003a0: 35a9 323d f640 e7ba 4c94 f2bc 172d c0bd
000003b0: 27ea b63c bb8e 04be e917 543d f81d e73d
000003c0: 9ebd 38bd 838f e23b 6551 3fbd 4ba5 663e
000003d0: 9986 5f3d 23e0 6d3d efb1 1e3e 1ca9 6b3d
000003e0: 6a07 503e 7b51 f93d 9d21 92bd 43d0 003e
000003f0: cf92 04bd 2651 acbd 9ae6 833e 7d87 833d
-0.12055943 -0.17500013 -0.115148395 -0.019047756 -0.009686137 -0.03719724 -0.010179881 0.09747524
-0.1063364 -0.12609933 0.12064158 0.10455681 -0.02462631 -0.0058345757 0.059138607 -0.05787336
0.107333474 -0.02456292 0.10408618 0.026094876 -0.08262089 0.007727851 -0.054709382 0.05601536
0.15573514 -0.10625871 0.117497854 0.031451058 -0.14667174 -0.03828858 0.011021925 -0.0021830744
0.015067565 -0.07129517 -0.031750627 -0.010110212 -0.16226014 0.0026878759 -0.16051659 0.026449878
0.01975133 -0.021742094 -0.112439886 -0.038322065 -0.053181153 -0.036445364 -0.015926046 -0.08254337
0.101934925 0.0102379145 -0.07534586 -0.07885235 0.08972142 0.1101616 0.15103061 0.027981471
0.1794265 0.16111697 0.0035039238 -0.11073705 -0.05058865 0.0427543 -0.012226297 0.054390576
-0.17166775 -0.09150668 0.10301004 -0.03829922 0.059822988 -0.14033568 0.116814315 0.14075229
0.028906314 0.11181982 0.018420525 -0.07830348 0.09143223 0.10849312 -0.02728298 0.21114753
0.15921403 0.036276825 -0.10391409 -0.065269396 -0.005235719 0.022156492 -0.14779127 -0.09286159
-0.11276988 -0.14114964 -0.021824993 0.04323486 -0.09179866 0.018742556 0.20541666 0.21575606
0.09328719 0.034948267 0.1914506 -0.054517675 -0.02794293 -0.1436156 -0.13556111 -0.036861908
-0.14636402 -0.100717604 0.2084368 0.03904355 0.15797435 0.025593486 0.053924333 -0.028926216
0.11610263 -0.06162595 0.016017662 0.035972256 0.0025698491 0.077022545 0.052014474 -0.09089589
-0.01682753 0.034703504 0.07578847 0.07105503 -0.09306286 0.011876691 0.11982774 0.019166788
0.033062823 0.018349357 -0.04614048 0.10392741 0.052346725 -0.014808189 0.17632407 0.0550581
0.14260551 0.06281895 0.029893842 0.096878804 -0.028780287 -0.042275254 0.06926278 -0.027741598
-0.09695176 -0.006392686 0.021741644 0.003356435 0.1768592 0.12774287 -0.086340606 0.0331154
0.0024142931 -0.048022106 -0.041273367 0.053455394 -0.11489331 -0.038058877 -0.0861219 -0.07356305
-0.16867433 0.08474064 -0.068943605 -0.022248993 0.0008514695 -0.024414832 -0.029904382 -0.02022293
0.05275428 0.014129523 0.05861012 0.030037709 -0.23028879 0.077010475 -0.17179252 -0.023036478
-0.057258826 -0.053378258 0.0050109844 -0.051155582 -0.08363154 -0.024553174 0.023587901 -0.07024236
-0.031222103 0.050684426 0.100864336 -0.03333817 -0.13790846 0.09914441 -0.13023028 -0.0017100736
-0.0038723387 0.14997672 0.08962227 -0.10743817 -0.1366571 -0.10551557 -0.00035803718 0.0052508432
-0.11414735 0.040553145 -0.027698763 -0.06387031 -0.15836485 0.08464789 -0.04362913 0.023040425
0.05300516 -0.109850906 -0.01611577 0.053928807 0.028013747 -0.006948645 0.004761174 0.032603644
-0.03930557 -0.02793231 -0.11731199 -0.064599 0.1403249 0.039071836 0.1604151 -0.03195757
0.024265891 0.0025789307 -0.033818513 0.05700621 0.13040864 -0.056319434 0.06770182 0.017427592
0.0436184 -0.0017643261 -0.02961173 -0.093836 0.02232845 -0.12945072 0.051780615 0.11285013
-0.045102708 0.0069140806 -0.046708483 0.22523992 0.05457172 0.05807508 0.15497564 0.057534322
0.20315328 0.12173744 -0.071353175 0.12579446 -0.03236657 -0.08413915 0.25761873 0.06422327

encoder.block.1.layer.1.adapter.sharif_llm_adapter.0.bias f4 [8]
00000000: 3f93 02be 9dc5 58bd 0d49 fcbc 8742 dcbb
00000010: c362 1bbd 10ce 79bd e429 34bd cb1d 98bd
-0.12751482 -0.052922834 -0.030796552 -0.006721798 -0.037935983 -0.060987532 -0.043985263 -0.074275576

encoder.block.1.layer.1.adapter.sharif_llm_adapter.2.weight f4 [512, 8]
00000000: 6e8c 85be d065 ec3d 8359 b0be e416 9d3e
00000010: fa57 9cbd 22fe 793e cc20 633e def8 18be
00000020: 3af9 5d3e 220a 2abe 4d6f 613e 5db9 b93e
00000030: 48ae 54bd 20f3 243d 2be1 cb3c ac9e 89bd
00000040: 7d8e bebd 5c31 33be 34a3 8fbd beaa 18be
00000050: b8e4 413d a443 123d 1f61 803c 1899 7fbd
00000060: 4fe6 74be 1e61 273e 646c 3cbe 5f1e 4ebd
00000070: 8c5a 263e cb18 0cbe cdf7 29be 4db7 4d3a
00000080: 773d 183d 0073 50be 5bce 3bbe 9cba a8bd
00000090: e4dd 323e fd50 463d b0f8 893d abab b93d
000000a0: 0cfa b2be fe81 62bd 2e86 23bd bcba 793c
000000b0: 7f01 df3d 62e4 a5bc 3a9d 3c3e d4dc 8abe
000000c0: 7672 babd 64ba 6bbe e3b8 803c a077 cebe
000000d0: aecd a5be f0e8 67be da0d 473b 46ba 0fbe
000000e0: 414b b93e 4164 2a3e 4fe6 613e c7b1 563e
000000f0: df89 cebb a56e dc3d 1cca 0cbe 7e46 95be
00000100: a09c 483e 3aa2 a7bd 68b4 773e fdb8 04bd
00000110: 605f 90be 9b95 5b3e 072f 51be 862a 85be
00000120: b324 bf3d 2da0 d53d b0f5 e43d 691b 033e
00000130: e927 e53d 1bd5 453e 9922 a2be ee87 7b3d
00000140: 671d 2dbe fe9d 693d 0eea 9ebb 07c3 833e
00000150: 4c2d d8bd c7e1 8b3d b0f5 aa3d bd2e 8fbe
00000160: e3de 993d 6a37 043e ec78 f5bb c2ae babd
00000170: 42bd 253e f4e6 13be 9691 7ebe 5272 e83d
00000180: b3f6 5a3e 22c4 7e3e 04f2 38bd b0d4 303e
00000190: 1c33 2d3e 5450 e43e 1cf2 03be 3259 cebc
000001a0: 3a4f e4bd 27a8 fc3d 67be 26be 551e 19be
000001b0: 7c24 8d3d dcab 87bd b679 c7bd 192d 633d
000001c0: 3e0b 65be bcbe 75be 8723 673e 8456 d6bd
000001d0: dc3c 8c3e e874 72bd 5555 02be 8229 133e
000001e0: 4129 37be ffae 7bbd 0ba5 35be 2da3 783e
000001f0: 0ec6 5fbe ea62 433d 215b 493d ff32 98be
00000200: 79c2 23be 1efe 4f3e ee13 96be 1340 923e
00000210: adbe 3f3d 2a15 973e da2e 1cbe 17af bf3b
00000220: 02a7 593d 39d6 fc3d 3d59 35bb 8e3e 843e
00000230: de89 3cbb 791d 9b3d 81c2 863d b05a 3bbe
00000240: 4515 783e 65e6 71bd dc3e 52be 70e1 7b3c
00000250: 136d 5cbd 9472 af3d 5fd1 303e 4fa8 ebbd
00000260: b55c 863e befe 84bc 7a13 6cbd 49ef 083e
00000270: d331 773e 9d42 c8bc 8e77 5b3d 2611 213e
00000280: dc59 ab3d 4f62 8a3e 7376 80be bb3f 02bf
00000290: 431d a73e ea45 bbbc 84d2 4f3e 1489 9e3e
000002a0: 2beb d4bc 98bd b13e 14ce f83d 26f6 c13e
000002b0: bd1e 93be 6b43 d3bd ae7d 713d 06fe 9ebe
000002c0: 01c7 ad3d 6651 1cbe 36d8 533b 4e3f 26bd
000002d0: b405 923e 2245 793e 0491 51be 9846 9b3d
000002e0: bcf4 94be d55e 79be f8c8 38bd a93e 1b3e
000002f0: 5df1 4b3e ac65 a73d dea0 e53d c8b9 b3bd
00000300: 772b 9bbe 87cb f03d 09bf b9bd 54a7 07bd
00000310: e836 1b3d 591c 893e e253 34be 7eac 293e
00000320: 6c97 bdbd 02c0 f4bd d2e5 a7be 32b5 30be
00000330: 7b30 743e a96a d8bd 1578 b73c b895 833d
00000340: 1c96 bd3e 2f56 1e3e 1728 09bd adc5 87bd
00000350: 728d 11be d0da e93d 6275 a9be 27b7 783e
00000360: 7202 8cbe 5665 14bd c6b1 513e 4d98 1c3d
00000370: 185d 6a3e 4803 943d b17a 81be 7f62 e83d
00000380: 6dcd a23d abeb 61be 5ed4 863e e4aa 853d
00000390: 129c 343e d02c 9ebe d2e4 fd3d a603 c6bb
000003a0: cc34 7ebe c06f 94bb ca0c 80be d833 503d
000003b0: 02b7 5dbc f274 4bbe 99e8 673d 0e2d 903d
000003c0: e84e e6bd 772f 00bd ab7d 093d 257c 7ebe
000003d0: 24fa 2dbe efe4 363d edbf a83e 7749 8fbe
000003e0: 378a 89be 0e46 2d3c 2445 98bd ab21 7cbe
000003f0: eb01 1dbe 85ad 1fbe 93ff bbbe 70a0 de3d
-0.26083702 0.11542857 -0.34443292 0.30681527 -0.07633968 0.2441335 0.2218048 -0.14938685
0.21677104 -0.16605428 0.22015114 0.36274233 -0.05192402 0.040270925 0.024887642 -0.067197174
-0.09304521 -0.17499298 -0.070135504 -0.14908883 0.047337264 0.03570904 0.015671311 -0.06240186
-0.23915981 0.16345641 -0.18400723 -0.050321933 0.16245478 -0.13681333 -0.16598435 0.00078474433
0.037167992 -0.20356369 -0.18340437 -0.08238718 0.17467457 0.04841708 0.067368865 0.09065946
-0.34956396 -0.05529975 -0.039922886 0.015242275 0.10888957 -0.020250503 0.18419352 -0.27121603
-0.09103863 -0.23020321 0.01571316 -0.40325642 -0.32383484 -0.22647452 0.0030373246 -0.14035901
0.36190227 0.16639806 0.22060512 0.20966254 -0.0063030566 0.10763291 -0.13748974 -0.29155344
0.19590998 -0.08185239 0.24189913 -0.03240298 -0.28197765 0.21443789 -0.20428096 -0.26009005
0.09333172 0.10430942 0.11179674 0.12803425 0.11189253 0.19319575 -0.3166702 0.06140893
-0.16905747 0.05703544 -0.004849679 0.25734732 -0.10555515 0.06830173 0.083476424 -0.27965346
0.075132154 0.12911764 -0.0074912217 -0.09115364 0.16185477 -0.1444357 -0.24860224 0.1134993
0.21383171 0.24879506 -0.04515268 0.17268634 0.16914028 0.44592535 -0.12885326 -0.025189016
-0.11147924 0.1233676 -0.1628357 -0.14952977 0.068917245 -0.066245764 -0.097400114 0.05546293
-0.2236757 -0.2399854 0.22572146 -0.1046572 0.27390182 -0.05919352 -0.12727864 0.14371303
-0.17886831 -0.061446186 -0.1773874 0.24280997 -0.21852896 0.047701754 0.049159173 -0.29726407
-0.15992154 0.20311782 -0.2931208 0.2856451 0.046812702 0.29508334 -0.15252247 0.0058497298
0.053137787 0.12345547 -0.0027671598 0.25828975 -0.0028768699 0.07573981 0.065800674 -0.18296313
0.24226864 -0.059057612 -0.20531791 0.015373573 -0.05381496 0.08566776 0.17267369 -0.11506712
0.26242605 -0.016234752 -0.05763576 0.1337253 0.241401 -0.024445826 0.053580813 0.15729198
0.08366749 0.27028129 -0.2509037 -0.50878495 0.32639512 -0.022860486 0.20295149 0.30963957
-0.025991043 0.3471496 0.12148681 0.3788311 -0.2873439 -0.10315593 0.058957748 -0.3105318
0.084852226 -0.15265426 0.0032324917 -0.040587716 0.28519976 0.24342778 -0.20465475 0.07581824
-0.29092968 -0.24352582 -0.045113534 0.15160622 0.19916292 0.08173689 0.112123236 -0.08775669
-0.303066 0.1175757 -0.0906964 -0.03311856 0.03789416 0.2677944 -0.17610124 0.16569707
-0.09257397 -0.11950685 -0.32792526 -0.1725662 0.23846619 -0.10567219 0.022396127 0.06425041
0.37028587 0.15462564 -0.0334855 -0.066295005 -0.14214113 0.11418688 -0.33097368 0.24288617
-0.27345616 -0.036229454 0.20477971 0.038231183 0.22887075 0.07227188 -0.2528892 0.11346912
0.07949338 -0.22062556 0.26333898 0.065267354 0.17637661 -0.30893564 0.1239716 -0.0060429154
-0.24824828 -0.004529923 -0.25009757 0.050830692 -0.013532402 -0.1986883 0.056618307 0.070398435
-0.11245519 -0.031295266 0.033567112 -0.24852045 -0.16989952 0.04465192 0.32958928 -0.27985737
-0.26863262 0.010575784 -0.074350625 -0.24622218 -0.15332763 -0.15593536 -0.36718425 0.10870445

encoder.block.1.layer.1.adapter.sharif_llm_adapter.2.bias f4 [512]
00000000: 0480 0ebe 317e 643d 450c d73e ccf1 413e
00000010: d59c e5bd ac7a 2d3e b35a f9be 0d48 023e
00000020: 2b5f 833e ba6b 91be 5e95 88be 9917 393e
00000030: 9385 6a3d 0fca cbbd df9b 803e 9044 aabe
00000040: fd95 bb3d e164 7dbe ff3e babe 162f 893e
00000050: e774 353e 9a9a ba3e f1fb 933e 3d65 713e
00000060: 38dc 763d ff0b 043e 8bf3 573d a31b b3bd
00000070: 04d5 b93d 8915 89be d398 463e af37 a0bc
00000080: 6075 0a3d 1329 1ebd 6f0a 883e 7b4e 01bd
00000090: 7322 17bc 09f0 cd3d 2f7c 1fbe 12ae 84be
000000a0: 4c16 89be 37fd 70be 6bf3 b2bd d7cf 893e
000000b0: 690b 8abe 8c4c ae3e 5f6d f03d 1e44 9bbe
000000c0: 9f82 4e3d 8867 27be 027a 473e f2ce 283e
000000d0: d7d6 643e 99bc 06be 00df c0bc f465 f7bb
000000e0: a0d8 7fbe b2bf aebd 1599 4f3e 3634 843e
000000f0: 76fb bb3d 5833 ccbd 9d9e 8b3c 6a97 593d
00000100: 368f 123e 6910 2dbe a697 b9be 5fac 2dbe
00000110: ac46 023e 8a52 6e3e 1143 bfbd ddde 52be
00000120: 20c3 a43e cdcc 8cbe db45 37be 3734 e0bd
00000130: d37b b6be 2cfa 82be 99fa 3fbe f631 203e
00000140: d3b4 b93d eaf1 5bbe a5dc a7ba 7d7a 3d3e
00000150: ef63 46be 37aa eebd b05d f4bd 2d1b 4d3e
00000160: 7d1e 6fbe c1df bd3e fce2 4a3e 194f 0dbd
00000170: 390a 9fbe 9f72 9c3e a8d1 3ebe 36de df3b
00000180: 3920 25be 17b8 2bbd 7e76 7e3e 2f20 2abd
00000190: adc4 88be 51c2 5fbd 17e1 09bc a4d5 83be
000001a0: a151 143e d5b5 3fbe bfaf 2e3d 028c 183e
000001b0: 0490 793e d693 57be ec33 76be df29 013e
000001c0: d471 7dbe 7701 78be a7e6 383e 8747 ac3e
000001d0: a0ab 6dbe 600c 4fbe 3cdf 343e 9901 cc3d
000001e0: 18b7 44be 6c70 ac3e f3a6 393e 7fb2 8a3e
000001f0: aa30 6c3e af83 0b3f 7b09 85bd 82c7 0fbe
00000200: 3864 48bd e863 b23d 5780 08be 60f3 4ebe
00000210: b37e 56be 8bc3 b8bd ca7c 953d 4d87 b73b
00000220: 59c4 09be ef10 17bd d2e8 d5be ac76 86be
00000230: 72b0 4e3e 7cb0 0e3d 579a 9d3e fc87 eabd
00000240: 0aaf 1d3c 1772 423e 60a0 8abe dbd5 89bb
00000250: 9df3 ee3d f9ee 87be 4748 33be 0df0 d8bd
00000260: 7ab1 2abe 7065 21be 9582 a03e 1d6e 9d3e
00000270: 7883 a2be 6cd4 aabe ccac 0a3e 0c49 64bd
00000280: 67f0 7fbd 594b 8ebe 5972 3f3e 478b 963e
00000290: 3d6c bfbc 3188 ae3d e433 acbe 27f3 ea3e
000002a0: 56d7 f93e 20c7 54be 1a46 a3be 2a7f 9a3e
000002b0: a870 c93e f577 c23e f26f b53e 380b 8b3e
000002c0: 1568 a63e 533d 123e bc6d ecbd 3ad8 92be
000002d0: 95ee 113e dd20 cd3d 9e31 c13e e495 863e
000002e0: 318b 56be f546 60be 7cc1 e33d f81e 9b3e
000002f0: 13e7 853e 2c5c 173a 88a0 56be 43b0 d6bc
00000300: a98b c1be 98d2 b73d 4f6d c83e f4d6 423e
00000310: bbe6 af3e a933 a5be 7d5f 073e eede 64be
00000320: af00 523e 1cb9 453e 40c6 80be ced3 523d
00000330: b5b8 a4bd 7d37 68be 7de7 17be e5a9 c73d
00000340: 3139 1c3e a820 14be 07df aa3d c3b0 a13e
00000350: f926 d33c 2f25 973d 1cef d73d 475f cc3d
00000360: 10a5 003e 7e62 c63c 3752 0d3e 6b4c 7f3d
00000370: 310c ce3b d516 b9be 43f1 a43c 95e9 2b3e
00000380: 766b 143e b2bc ee3e 4e36 d43d 3e97 403e
00000390: 691c 343e d9cd 93bd d2dd efbc d584 6b3e
000003a0: 126e 50be 3ee4 3dbe e6c3 913e 972a 113e
000003b0: faea 2e3e 97d5 5dbe 1b05 943e 7870 9f3e
000003c0: a79c b43e 6174 71be 27cc 8f3d 48ac f5bd
000003d0: c4b1 69be 183b 883e 6dd7 a03d ebe6 403e
000003e0: ade4 d83e bc07 a2bd 0c22 443d 7c68 ab3e
000003f0: ce6d 583e 81ca 91bd 93c6 93be 5c31 873e
-0.13916022 0.055784408 0.42001548 0.18939894 -0.11211554 0.16941327 -0.4870201 0.12722798
0.25658545 -0.284025 -0.26676458 0.18075408 0.057256293 -0.09950649 0.2511892 -0.33255434
0.09159467 -0.24745513 -0.36376187 0.26793736 0.17720376 0.36446077 0.28903154 0.23573776
0.06026861 0.12895201 0.052722495 -0.08745506 0.09073833 -0.26774243 0.19394235 -0.019557802
0.033803344 -0.03861339 0.2657046 -0.031568985 -0.009224522 0.10055549 -0.15574716 -0.25914055
-0.26774824 -0.23534094 -0.087378345 0.26916382 -0.2696183 0.34042776 0.11739611 -0.30325407
0.05041754 -0.16348088 0.19480136 0.16485193 0.2234758 -0.13157882 -0.023543835 -0.0075499956
-0.2498498 -0.08532657 0.2027324 0.25821084 0.09178822 -0.099707305 0.017043406 0.053122915
0.14312443 -0.16900791 -0.3624851 -0.16960286 0.12722272 0.23273674 -0.09338964 -0.20592828
0.3218012 -0.275 -0.17897741 -0.10947459 -0.35641345 -0.2558149 -0.18747939 0.15644059
0.090676926 -0.21479002 -0.0012806846 0.18503757 -0.19374059 -0.1165356 -0.11931932 0.20029898
-0.23351474 0.37084773 0.1981315 -0.03449926 -0.31062487 0.305562 -0.18634665 0.0068319095
-0.16125573 -0.04192361 0.24849889 -0.0415346 -0.26712552 -0.054628674 -0.008415482 -0.25748932
0.14484264 -0.18721707 0.042648073 0.14897159 0.24371344 -0.21052489 -0.24043244 0.12613629
-0.24750453 -0.24219309 0.18056737 0.3364832 -0.23210001 -0.20219564 0.17663282 0.09961242
-0.1921047 0.3367952 0.18130092 0.27089307 0.23065439 0.5449781 -0.06495949 -0.1404095
-0.0489237 0.08710462 -0.13330208 -0.20210028 -0.2094677 -0.09021672 0.07299192 0.005600846
-0.13453807 -0.036881384 -0.4177919 -0.26262414 0.20184496 0.034836277 0.30781814 -0.11451718
0.009624252 0.18988834 -0.2707548 -0.0042064018 0.11667559 -0.2654951 -0.1750804 -0.10592661
-0.16669264 -0.15761352 0.31349626 0.30748072 -0.31740928 -0.3336519 0.1354248 -0.055733725
-0.062485125 -0.2779186 0.18695964 0.29403135 -0.023367042 0.0852207 -0.3363334 0.45888636
0.487971 -0.20779085 -0.3188942 0.30175143 0.39343762 0.37982145 0.3543697 0.27156997
0.32501283 0.14281206 -0.11544368 -0.28680593 0.14251168 0.10016034 0.37733167 0.26286232
-0.20951535 -0.21902068 0.111208886 0.30297065 0.26152858 0.00057739276 -0.20959675 -0.026207095
-0.37801865 0.089757144 0.39145896 0.1902731 0.3435572 -0.32265976 0.1322002 -0.22350666
0.20508073 0.19308895 -0.25151253 0.051471524 -0.080430426 -0.22677417 -0.148344 0.09749202
0.15256192 -0.14465582 0.0834332 0.3158017 0.02577542 0.07380139 0.10543653 0.0997911
0.12562966 0.024216887 0.13800894 0.062328737 0.0062880744 -0.36150232 0.020134574 0.16788323
0.14494118 0.46628338 0.1036192 0.18807694 0.17588963 -0.07216997 -0.029280577 0.2299989
-0.20354488 -0.18544099 0.2846977 0.14176403 0.17081824 -0.2166351 0.28910145 0.31140494
0.35275766 -0.23579551 0.07021361 -0.11995751 -0.22821718 0.26607585 0.07853589 0.18838088
0.42361966 -0.079116315 0.047884032 0.33478153 0.21135637 -0.07118703 -0.28862438 0.26404846

encoder.block.2.layer.1.adapter.sharif_llm_adapter.0.weight f4 [8, 512]
00000000: b1eb 9bbc 6275 dcbc 92d3 0e3d e88b 3c3c
00000010: a1d1 ce3c b7fd 05be ae35 a73c 9335 7cbd
00000020: 1b1c 213c 2987 293d ee46 ff3b e243 db3c
00000030: d5b9 7fbd eb32 debc 7709 97bc 2b25 18bd
00000040: 69b8 86bd 7dbf 963c e84b ae3d 598d 273d
00000050: e968 b9bb 2e83 713d d619 9abd 8a75 7b3d
00000060: 0a37 fb3c 2fc8 92bb 819c 8abd b184 cd3c
00000070: 7b82 813c 5edf 9fbc 5205 433c 0fb3 073c
00000080: c0cb a9bc 2869 9bbb 632a 863d e3e3 1ebd
00000090: 0169 013d b622 683d 69e8 91bc cd13 033d
000000a0: 10e1 fc3b 1986 203d c883 57bd f73a bf3c
000000b0: 1c67 3abd 2e30 b73b 3d52 103d 2eeb 16bd
000000c0: ec20 ba3c fdc6 853c 3698 27bd 0ec2 b83c
000000d0: 697d 64bb 00a2 9fbc e2c9 e73b d9e4 e53c
000000e0: b5b1 b9bc be6f 943d 6f51 f83c a2a2 b9bc
000000f0: 0897 963d f55b 26bd ef5d 653c 0d70 d1bd
00000100: c8b5 b6bd 3ee7 18bd be9d 30bb 8172 b63d
00000110: 149e 2a3c 1015 243c d1dc 40bd 761d b7bd
00000120: 9660 2cbd 5252 16bd 452e b03d 8188 b03c
00000130: 6141 eabc 594a c23b bb54 913d b8bc dabc
00000140: e951 793d 26b4 01bc 74d4 83bc 4059 96bd
00000150: e657 5c3d 1e7d 9dbc 725a 8fbd ebae 323d
00000160: 7589 e43c 20d0 d5bb 4154 dabb e559 9bbd
00000170: fa53 5bbd abc6 b63d e363 f2bc 9185 c6bb
00000180: fe1c a93d 0bd9 963d ff7f 1ebd 797f 39bd
00000190: 2b69 acbc 4074 76bd 0630 bc3d dc27 1b3c
000001a0: 490b 91bb fca7 b8bc 7fdb 923c d3a9 f6ba
000001b0: 1097 ed3c 9dda 1abc 1b17 60bc f0d5 a3bc
000001c0: fca3 c13c 1167 92bc 5b1b b8bd 67cf ddbc
000001d0: d5c9 69bd 1977 06bd 7ca1 303b 8220 4e3c
000001e0: 2153 2d3d cd1d a23d bdb3 81bc 056a 143d
000001f0: 10e3 84bc dfad 9e3c d22f abbd b326 823b
00000200: bad0 02bc e7e0 e73b bcba babd 3121 913c
00000210: 436f 30bd d6ee 34bb 95e6 e6bb cbdd 0bbd
00000220: 2e50 47bc 3178 9a3c e9da e83a 20eb c53c
00000230: ce55 eebc 5fe1 2b3d 9147 cfbb d1fa 8abd
00000240: 020e 743c 24fb ab3d 7e66 4e3c 42d6 66bd
00000250: 1e4f f83c ed10 433d d1a2 c8bc d39a 9f3d
00000260: a7a5 02bd a3db 7b3c 228b df3c 1e5d aa3b
00000270: 073e c7ba 52be 22bd bd62 31bd 122c 81bc
00000280: dcd6 06bd b45c c73d 801d bebd 791b 473c
00000290: 6be3 2cbc 10d8 29bb 48b8 dfbb eb9f 833c
000002a0: 82e2 91bc ccf5 453b 96b4 7abb cb13 b3bd
000002b0: 0647 433c 6d8d 43bd 2045 c5bd 203b 133d
000002c0: c0b9 14bc a802 0cbd af8a 653d 1f77 1ebd
000002d0: 8934 87b9 cf28 d13d 19bb 073d 23d1 2cbd
000002e0: 2676 f4bc 75f2 8a3c 389e 823d 61ad 0e3d
000002f0: 0746 ac3c fcd0 9bbd a7c1 a2bd 16f5 2dbd
00000300: 47f0 1c3d f0aa babc c1df 96bc 5d99 eebc
00000310: 0b52 01be fd76 37bd 47aa 5abb 86e2 793c
00000320: 8c5d 03bc f95d 21bd e479 223c 2fd3 dcbc
00000330: 38aa 783c 0ed0 fbbc bdf3 88bd 4d2d 45bc
00000340: 3d30 f83d 2169 c7bd 6a62 ea3c 95cc ccbd
00000350: a39a 183d 3e10 183d 5313 a9bc 1097 633d
00000360: 7208 d4bc 9f60 6cbc 363b a9bc 1fda 91bd
00000370: 0f73 3e3d 01db 8c3b fbde 53bd c550 9b3d
00000380: 2a13 0cbd 2911 1a3d 8627 d43b acfe fdbc
00000390: 444f 333c 61a0 c0bb 4088 813d 0590 9e3c
000003a0: 1ffc cd3d 0aaf 17bd 05b4 a33c a37c de3c
000003b0: 50f0 b23c 635d 173b 4d79 323d 5b66 c33c
000003c0: 25d1 94bb 0ee5 abbc f81a 03bd c678 b23d
000003d0: 68b6 d8bc 42bd e03c c416 693d bee3 bebd
000003e0: 8cf4 023d f362 5abd b82f eebc f3aa 8ebc
000003f0: a470 1abd e23d 24bd 4cfd 1fbd 3444 c0bb
-0.019033285 -0.026911441 0.034869738 0.011507966 0.025246443 -0.13085066 0.020411339 -0.06157453
0.009833361 0.041388664 0.007790438 0.026765767 -0.062433083 -0.027123889 -0.01843713 -0.03714482
-0.06578142 0.018401856 0.08510572 0.040906284 -0.005658258 0.058962993 -0.07524459 0.06139139
0.030665893 -0.00447943 -0.06768132 0.025087686 0.015809288 -0.01951569 0.011903124 0.008282437
-0.020727038 -0.00474276 0.065510534 -0.03879155 0.03159428 0.056673728 -0.017811017 0.032001305
0.007717259 0.039190385 -0.05261591 0.023343546 -0.04550849 0.0055904603 0.03523468 -0.03684538
0.022720776 0.016330237 -0.040916644 0.02255347 -0.003486479 -0.019486427 0.007073627 0.028063225
-0.022667745 0.07247876 0.030312268 -0.022660557 0.07353026 -0.04061504 0.013999446 -0.1022645
-0.08921391 -0.037329905 -0.002694949 0.08908559 0.010413665 0.010014787 -0.047085587 -0.08941166
-0.0420843 -0.0366996 0.08602575 0.021549465 -0.028595628 0.005929273 0.07096239 -0.026701316
0.06086913 -0.007916486 -0.016092516 -0.07341242 0.053794764 -0.0192247 -0.06999673 0.043623846
0.027897576 -0.0065250546 -0.006662876 -0.075855054 -0.053546883 0.08924612 -0.029588645 -0.006058403
0.08257483 0.073656164 -0.038696285 -0.045287583 -0.021046242 -0.06016946 0.09188847 0.009469952
-0.004426394 -0.022541039 0.01792693 -0.0018818922 0.029002696 -0.0094515355 -0.013677384 -0.019999474
0.023637764 -0.017871412 -0.08989593 -0.027076436 -0.057077248 -0.032828424 0.002695172 0.012580993
0.042315606 0.0791584 -0.015832776 0.03623392 -0.016221553 0.019370018 -0.083587304 0.0039718985
-0.007984335 0.007076371 -0.09117648 0.017716022 -0.043074857 -0.0027608178 -0.0070465305 -0.034147065
-0.012165112 0.01885614 0.0017765436 0.024159968 -0.02909365 0.041962977 -0.00632567 -0.06786121
0.014895918 0.08397511 0.012597678 -0.056356676 0.030311164 0.047623564 -0.0244917 0.07793202
-0.03189626 0.01537219 0.027288023 0.0051990887 -0.0015200981 -0.039732285 -0.043307055 -0.015768085
-0.03291975 0.097344786 -0.092829704 0.012152546 -0.010552268 -0.0025916137 -0.006827388 0.016067466
-0.017808203 0.003020632 -0.003825461 -0.087440096 0.011918789 -0.047742296 -0.09632325 0.035945058
-0.009077489 -0.03418222 0.056040462 -0.03868782 -0.00025788348 0.10212862 0.033137415 -0.042191636
-0.029841494 0.016961316 0.06377834 0.034833316 0.021029485 -0.0760822 -0.079470925 -0.04247006
0.038315084 -0.022786587 -0.018417241 -0.029125864 -0.12628953 -0.04479121 -0.0033365653 0.015251761
-0.008017909 -0.03939626 0.009916756 -0.026956169 0.015177302 -0.030738857 -0.066871144 -0.012034726
0.12118576 -0.097368486 0.02861138 -0.099999584 0.037256848 0.037124865 -0.020639097 0.055563986
-0.025882933 -0.014427333 -0.020658117 -0.071216814 0.046496447 0.0042985682 -0.051726323 0.07583765
-0.034197964 0.03761402 0.006474438 -0.031005226 0.010944191 -0.0058784937 0.06324816 0.019355783
0.10057854 -0.037032165 0.019983301 0.02715904 0.021843106 0.0023096434 0.043572713 0.023852518
-0.0045415335 -0.020983245 -0.03200814 0.08714442 -0.026454166 0.027433995 0.056906477 -0.09320782
0.0319715 -0.05331702 -0.029075488 -0.0174155 -0.03770508 -0.04009808 -0.039059922 -0.0058675054

encoder.block.2.layer.1.adapter.sharif_llm_adapter.0.bias f4 [8]
00000000: eb88 d8bd 285c 3cbd 92b3 e7bc ddea 94bd
00000010: af3e 4dbd feea 05bd c070 e9bc 801e a3bb
-0.1057299 -0.045986325 -0.028283868 -0.07271359 -0.050108608 -0.03269481 -0.028496146 -0.004978001
